…
Mapped name None to device cuda0: GeForce GTX TITAN X (0000:03:00.0)
(514, 33600)
(5534, 33600)
((514, 700, 48), (5534, 700, 48))
(0.92483989051787341, 0.11815696954727173, 0.0, 0.0)
(20.0, 0.0, 20.0, 0.0)
(array([ 0.,  0.,  0.]), array([ 0.,  0.,  1.]))
((5534, 700, 21), (5534, 700))
____________________________________________________________________________________________________
Layer (type)                     Output Shape          Param #     Connected to                     
====================================================================================================
main_input (InputLayer)          (None, 700)           0                                            
____________________________________________________________________________________________________
embedding_1 (Embedding)          (None, 700, 50)       1050        main_input[0][0]                 
____________________________________________________________________________________________________
conv1d_1 (Conv1D)                (None, 700, 64)       9664        embedding_1[0][0]                
____________________________________________________________________________________________________
conv1d_2 (Conv1D)                (None, 700, 64)       22464       embedding_1[0][0]                
____________________________________________________________________________________________________
conv1d_3 (Conv1D)                (None, 700, 64)       35264       embedding_1[0][0]                
____________________________________________________________________________________________________
concatenate_1 (Concatenate)      (None, 700, 192)      0           conv1d_1[0][0]                   
                                                                   conv1d_2[0][0]                   
                                                                   conv1d_3[0][0]                   
____________________________________________________________________________________________________
gru_1 (GRU)                      (None, 700, 300)      443700      concatenate_1[0][0]              
____________________________________________________________________________________________________
gru_2 (GRU)                      (None, 700, 300)      443700      concatenate_1[0][0]              
____________________________________________________________________________________________________
concatenate_2 (Concatenate)      (None, 700, 600)      0           gru_1[0][0]                      
                                                                   gru_2[0][0]                      
____________________________________________________________________________________________________
gru_3 (GRU)                      (None, 700, 300)      810900      concatenate_2[0][0]              
____________________________________________________________________________________________________
gru_4 (GRU)                      (None, 700, 300)      810900      concatenate_2[0][0]              
____________________________________________________________________________________________________
concatenate_3 (Concatenate)      (None, 700, 600)      0           gru_3[0][0]                      
                                                                   gru_4[0][0]                      
____________________________________________________________________________________________________
gru_5 (GRU)                      (None, 700, 300)      810900      concatenate_3[0][0]              
____________________________________________________________________________________________________
gru_6 (GRU)                      (None, 700, 300)      810900      concatenate_3[0][0]              
____________________________________________________________________________________________________
concatenate_4 (Concatenate)      (None, 700, 792)      0           gru_5[0][0]                      
                                                                   gru_6[0][0]                      
                                                                   concatenate_1[0][0]              
____________________________________________________________________________________________________
time_distributed_1 (TimeDistribu (None, 700, 200)      158600      concatenate_4[0][0]              
____________________________________________________________________________________________________
time_distributed_2 (TimeDistribu (None, 700, 200)      40200       time_distributed_1[0][0]         
____________________________________________________________________________________________________
main_output (TimeDistributed)    (None, 700, 3)        603         time_distributed_2[0][0]         
====================================================================================================
Total params: 4,398,845
Trainable params: 4,398,845
Non-trainable params: 0
____________________________________________________________________________________________________
./bestacccb6133idp546seq33e-4.h5
((5534, 700), (5534, 700, 3), (514, 700), (514, 700, 3))
…
